…
  is_hyperparam: false
  is_meta: false
  name: epochs
  options: []
  order: 20
  type: <class 'int'>
  value: 50
layer_blocks:
  computed:
  - 3
  - 4
  - 6
  - 3
  is_explicitly_specified: false
  is_hyperparam: false
  is_meta: false
  name: layer_blocks
  options: []
  order: 6
  type: <class 'list'>
  value:
  - 3
  - 4
  - 6
  - 3
loss_func:
  computed: CrossEntropyLoss()
  is_explicitly_specified: false
  is_hyperparam: false
  is_meta: false
  name: loss_func
  options: []
  order: 4
  type: <class 'torch.nn.modules.loss.CrossEntropyLoss'>
  value: CrossEntropyLoss()
model:
  computed: "ResNet(\n  (conv1): Conv2d(3, 64, kernel_size=(7, 7), stride=(2, 2),\
    \ padding=(3, 3), bias=False)\n  (bn1): BatchNorm2d(64, eps=1e-05, momentum=0.1,\
    \ affine=True, track_running_stats=True)\n  (relu): ReLU(inplace=True)\n  (maxpool):\
    \ MaxPool2d(kernel_size=3, stride=2, padding=1, dilation=1, ceil_mode=False)\n\
    \  (layer1): Sequential(\n    (0): Bottleneck(\n      (conv1): Conv2d(64, 64,\
    \ kernel_size=(1, 1), stride=(1, 1), bias=False)\n      (bn1): BatchNorm2d(64,\
    \ eps=1e-05, momentum=0.1, affine=True, track_running_stats=True)\n      (conv2):\
    \ Conv2d(64, 64, kernel_size=(3, 3), stride=(1, 1), padding=(1, 1), bias=False)\n\
    \      (bn2): BatchNorm2d(64, eps=1e-05, momentum=0.1, affine=True, track_running_stats=True)\n\
    \      (conv3): Conv2d(64, 256, kernel_size=(1, 1), stride=(1, 1), bias=False)\n\
    \      (bn3): BatchNorm2d(256, eps=1e-05, momentum=0.1, affine=True, track_running_stats=True)\n\
    \      (relu): ReLU(inplace=True)\n      (downsample): Sequential(\n        (0):\
    \ Conv2d(64, 256, kernel_size=(1, 1), stride=(1, 1), bias=False)\n        (1):\
    \ BatchNorm2d(256, eps=1e-05, momentum=0.1, affine=True, track_running_stats=True)\n\
    \      )\n    )\n    (1): Bottleneck(\n      (conv1): Conv2d(256, 64, kernel_size=(1,\
    \ 1), stride=(1, 1), bias=False)\n      (bn1): BatchNorm2d(64, eps=1e-05, momentum=0.1,\
    \ affine=True, track_running_stats=True)\n      (conv2): Conv2d(64, 64, kernel_size=(3,\
    \ 3), stride=(1, 1), padding=(1, 1), bias=False)\n      (bn2): BatchNorm2d(64,\
    \ eps=1e-05, momentum=0.1, affine=True, track_running_stats=True)\n      (conv3):\
    \ Conv2d(64, 256, kernel_size=(1, 1), stride=(1, 1), bias=False)\n      (bn3):\
    \ BatchNorm2d(256, eps=1e-05, momentum=0.1, affine=True, track_running_stats=True)\n\
    \      (relu): ReLU(inplace=True)\n    )\n    (2): Bottleneck(\n      (conv1):\
    \ Conv2d(256, 64, kernel_size=(1, 1), stride=(1, 1), bias=False)\n      (bn1):\
    \ BatchNorm2d(64, eps=1e-05, momentum=0.1, affine=True, track_running_stats=True)\n\
    \      (conv2): Conv2d(64, 64, kernel_size=(3, 3), stride=(1, 1), padding=(1,\
    \ 1), bias=False)\n      (bn2): BatchNorm2d(64, eps=1e-05, momentum=0.1, affine=True,\
    \ track_running_stats=True)\n      (conv3): Conv2d(64, 256, kernel_size=(1, 1),\
    \ stride=(1, 1), bias=False)\n      (bn3): BatchNorm2d(256, eps=1e-05, momentum=0.1,\
    \ affine=True, track_running_stats=True)\n      (relu): ReLU(inplace=True)\n \
    \   )\n  )\n  (layer2): Sequential(\n    (0): Bottleneck(\n      (conv1): Conv2d(256,\
    \ 128, kernel_size=(1, 1), stride=(1, 1), bias=False)\n      (bn1): BatchNorm2d(128,\
    \ eps=1e-05, momentum=0.1, affine=True, track_running_stats=True)\n      (conv2):\
    \ Conv2d(128, 128, kernel_size=(3, 3), stride=(2, 2), padding=(1, 1), bias=False)\n\
    \      (bn2): BatchNorm2d(128, eps=1e-05, momentum=0.1, affine=True, track_running_stats=True)\n\
    \      (conv3): Conv2d(128, 512, kernel_size=(1, 1), stride=(1, 1), bias=False)\n\
    \      (bn3): BatchNorm2d(512, eps=1e-05, momentum=0.1, affine=True, track_running_stats=True)\n\
    \      (relu): ReLU(inplace=True)\n      (downsample): Sequential(\n        (0):\
    \ Conv2d(256, 512, kernel_size=(1, 1), stride=(2, 2), bias=False)\n        (1):\
    \ BatchNorm2d(512, eps=1e-05, momentum=0.1, affine=True, track_running_stats=True)\n\
    \      )\n    )\n    (1): Bottleneck(\n      (conv1): Conv2d(512, 128, kernel_size=(1,\
    \ 1), stride=(1, 1), bias=False)\n      (bn1): BatchNorm2d(128, eps=1e-05, momentum=0.1,\
    \ affine=True, track_running_stats=True)\n      (conv2): Conv2d(128, 128, kernel_size=(3,\
    \ 3), stride=(1, 1), padding=(1, 1), bias=False)\n      (bn2): BatchNorm2d(128,\
    \ eps=1e-05, momentum=0.1, affine=True, track_running_stats=True)\n      (conv3):\
    \ Conv2d(128, 512, kernel_size=(1, 1), stride=(1, 1), bias=False)\n      (bn3):\
    \ BatchNorm2d(512, eps=1e-05, momentum=0.1, affine=True, track_running_stats=True)\n\
    \      (relu): ReLU(inplace=True)\n    )\n    (2): Bottleneck(\n      (conv1):\
    \ Conv2d(512, 128, kernel_size=(1, 1), stride=(1, 1), bias=False)\n      (bn1):\
    \ BatchNorm2d(128, eps=1e-05, momentum=0.1, affine=True, track_running_stats=True)\n\
    \      (conv2): Conv2d(128, 128, kernel_size=(3, 3), stride=(1, 1), padding=(1,\
    \ 1), bias=False)\n      (bn2): BatchNorm2d(128, eps=1e-05, momentum=0.1, affine=True,\
    \ track_running_stats=True)\n      (conv3): Conv2d(128, 512, kernel_size=(1, 1),\
    \ stride=(1, 1), bias=False)\n      (bn3): BatchNorm2d(512, eps=1e-05, momentum=0.1,\
    \ affine=True, track_running_stats=True)\n      (relu): ReLU(inplace=True)\n \
    \   )\n    (3): Bottleneck(\n      (conv1): Conv2d(512, 128, kernel_size=(1, 1),\
    \ stride=(1, 1), bias=False)\n      (bn1): BatchNorm2d(128, eps=1e-05, momentum=0.1,\
    \ affine=True, track_running_stats=True)\n      (conv2): Conv2d(128, 128, kernel_size=(3,\
    \ 3), stride=(1, 1), padding=(1, 1), bias=False)\n      (bn2): BatchNorm2d(128,\
    \ eps=1e-05, momentum=0.1, affine=True, track_running_stats=True)\n      (conv3):\
    \ Conv2d(128, 512, kernel_size=(1, 1), stride=(1, 1), bias=False)\n      (bn3):\
    \ BatchNorm2d(512, eps=1e-05, momentum=0.1, affine=True, track_running_stats=True)\n\
    \      (relu): ReLU(inplace=True)\n    )\n  )\n  (layer3): Sequential(\n    (0):\
    \ Bottleneck(\n      (conv1): Conv2d(512, 256 [[...]]"
  is_explicitly_specified: false
  is_hyperparam: false
  is_meta: false
  name: model
  options: []
  order: 5
  type: <class 'torchvision.models.resnet.ResNet'>
  value: "ResNet(\n  (conv1): Conv2d(3, 64, kernel_size=(7, 7), stride=(2, 2), padding=(3,\
    \ 3), bias=False)\n  (bn1): BatchNorm2d(64, eps=1e-05, momentum=0.1, affine=True,\
    \ track_running_stats=True)\n  (relu): ReLU(inplace=True)\n  (maxpool): MaxPool2d(kernel_size=3,\
    \ stride=2, padding=1, dilation=1, ceil_mode=False)\n  (layer1): Sequential(\n\
    \    (0): Bottleneck(\n      (conv1): Conv2d(64, 64, kernel_size=(1, 1), stride=(1,\
    \ 1), bias=False)\n      (bn1): BatchNorm2d(64, eps=1e-05, momentum=0.1, affine=True,\
    \ track_running_stats=True)\n      (conv2): Conv2d(64, 64, kernel_size=(3, 3),\
    \ stride=(1, 1), padding=(1, 1), bias=False)\n      (bn2): BatchNorm2d(64, eps=1e-05,\
    \ momentum=0.1, affine=True, track_running_stats=True)\n      (conv3): Conv2d(64,\
    \ 256, kernel_size=(1, 1), stride=(1, 1), bias=False)\n      (bn3): BatchNorm2d(256,\
    \ eps=1e-05, momentum=0.1, affine=True, track_running_stats=True)\n      (relu):\
    \ ReLU(inplace=True)\n      (downsample): Sequential(\n        (0): Conv2d(64,\
    \ 256, kernel_size=(1, 1), stride=(1, 1), bias=False)\n        (1): BatchNorm2d(256,\
    \ eps=1e-05, momentum=0.1, affine=True, track_running_stats=True)\n      )\n \
    \   )\n    (1): Bottleneck(\n      (conv1): Conv2d(256, 64, kernel_size=(1, 1),\
    \ stride=(1, 1), bias=False)\n      (bn1): BatchNorm2d(64, eps=1e-05, momentum=0.1,\
    \ affine=True, track_running_stats=True)\n      (conv2): Conv2d(64, 64, kernel_size=(3,\
    \ 3), stride=(1, 1), padding=(1, 1), bias=False)\n      (bn2): BatchNorm2d(64,\
    \ eps=1e-05, momentum=0.1, affine=True, track_running_stats=True)\n      (conv3):\
    \ Conv2d(64, 256, kernel_size=(1, 1), stride=(1, 1), bias=False)\n      (bn3):\
    \ BatchNorm2d(256, eps=1e-05, momentum=0.1, affine=True, track_running_stats=True)\n\
    \      (relu): ReLU(inplace=True)\n    )\n    (2): Bottleneck(\n      (conv1):\
    \ Conv2d(256, 64, kernel_size=(1, 1), stride=(1, 1), bias=False)\n      (bn1):\
    \ BatchNorm2d(64, eps=1e-05, momentum=0.1, affine=True, track_running_stats=True)\n\
    \      (conv2): Conv2d(64, 64, kernel_size=(3, 3), stride=(1, 1), padding=(1,\
    \ 1), bias=False)\n      (bn2): BatchNorm2d(64, eps=1e-05, momentum=0.1, affine=True,\
    \ track_running_stats=True)\n      (conv3): Conv2d(64, 256, kernel_size=(1, 1),\
    \ stride=(1, 1), bias=False)\n      (bn3): BatchNorm2d(256, eps=1e-05, momentum=0.1,\
    \ affine=True, track_running_stats=True)\n      (relu): ReLU(inplace=True)\n \
    \   )\n  )\n  (layer2): Sequential(\n    (0): Bottleneck(\n      (conv1): Conv2d(256,\
    \ 128, kernel_size=(1, 1), stride=(1, 1), bias=False)\n      (bn1): BatchNorm2d(128,\
    \ eps=1e-05, momentum=0.1, affine=True, track_running_stats=True)\n      (conv2):\
    \ Conv2d(128, 128, kernel_size=(3, 3), stride=(2, 2), padding=(1, 1), bias=False)\n\
    \      (bn2): BatchNorm2d(128, eps=1e-05, momentum=0.1, affine=True, track_running_stats=True)\n\
    \      (conv3): Conv2d(128, 512, kernel_size=(1, 1), stride=(1, 1), bias=False)\n\
    \      (bn3): BatchNorm2d(512, eps=1e-05, momentum=0.1, affine=True, track_running_stats=True)\n\
    \      (relu): ReLU(inplace=True)\n      (downsample): Sequential(\n        (0):\
    \ Conv2d(256, 512, kernel_size=(1, 1), stride=(2, 2), bias=False)\n        (1):\
    \ BatchNorm2d(512, eps=1e-05, momentum=0.1, affine=True, track_running_stats=True)\n\
    \      )\n    )\n    (1): Bottleneck(\n      (conv1): Conv2d(512, 128, kernel_size=(1,\
    \ 1), stride=(1, 1), bias=False)\n      (bn1): BatchNorm2d(128, eps=1e-05, momentum=0.1,\
    \ affine=True, track_running_stats=True)\n      (conv2): Conv2d(128, 128, kernel_size=(3,\
    \ 3), stride=(1, 1), padding=(1, 1), bias=False)\n      (bn2): BatchNorm2d(128,\
    \ eps=1e-05, momentum=0.1, affine=True, track_running_stats=True)\n      (conv3):\
    \ Conv2d(128, 512, kernel_size=(1, 1), stride=(1, 1), bias=False)\n      (bn3):\
    \ BatchNorm2d(512, eps=1e-05, momentum=0.1, affine=True, track_running_stats=True)\n\
    \      (relu): ReLU(inplace=True)\n    )\n    (2): Bottleneck(\n      (conv1):\
    \ Conv2d(512, 128, kernel_size=(1, 1), stride=(1, 1), bias=False)\n      (bn1):\
    \ BatchNorm2d(128, eps=1e-05, momentum=0.1, affine=True, track_running_stats=True)\n\
    \      (conv2): Conv2d(128, 128, kernel_size=(3, 3), stride=(1, 1), padding=(1,\
    \ 1), bias=False)\n      (bn2): BatchNorm2d(128, eps=1e-05, momentum=0.1, affine=True,\
    \ track_running_stats=True)\n      (conv3): Conv2d(128, 512, kernel_size=(1, 1),\
    \ stride=(1, 1), bias=False)\n      (bn3): BatchNorm2d(512, eps=1e-05, momentum=0.1,\
    \ affine=True, track_running_stats=True)\n      (relu): ReLU(inplace=True)\n \
    \   )\n    (3): Bottleneck(\n      (conv1): Conv2d(512, 128, kernel_size=(1, 1),\
    \ stride=(1, 1), bias=False)\n      (bn1): BatchNorm2d(128, eps=1e-05, momentum=0.1,\
    \ affine=True, track_running_stats=True)\n      (conv2): Conv2d(128, 128, kernel_size=(3,\
    \ 3), stride=(1, 1), padding=(1, 1), bias=False)\n      (bn2): BatchNorm2d(128,\
    \ eps=1e-05, momentum=0.1, affine=True, track_running_stats=True)\n      (conv3):\
    \ Conv2d(128, 512, kernel_size=(1, 1), stride=(1, 1), bias=False)\n      (bn3):\
    \ BatchNorm2d(512, eps=1e-05, momentum=0.1, affine=True, track_running_stats=True)\n\
    \      (relu): ReLU(inplace=True)\n    )\n  )\n  (layer3): Sequential(\n    (0):\
    \ Bottleneck(\n      (conv1): Conv2d(512, 256 [[...]]"
optimizer:
  computed: "Adam (\nParameter Group 0\n    amsgrad: False\n    betas: (0.9, 0.999)\n\
    \    capturable: False\n    differentiable: False\n    eps: 1e-08\n    foreach:\
    \ None\n    fused: None\n    lr: 0.001\n    maximize: False\n    weight_decay:\
    \ 0.0001\n)"
  is_explicitly_specified: false
  is_hyperparam: false
  is_meta: false
  name: optimizer
  options: []
…
